Test case num:  42
==> device:  cuda
==> Preparing data..
Files already downloaded and verified
Files already downloaded and verified
==> Evaluating model..
----------------------------------------------------------------
        Layer (type)               Output Shape         Param #
================================================================
            Conv2d-1           [-1, 64, 32, 32]           1,728
       BatchNorm2d-2           [-1, 64, 32, 32]             128
            Conv2d-3           [-1, 64, 32, 32]          36,864
       BatchNorm2d-4           [-1, 64, 32, 32]             128
            Conv2d-5           [-1, 64, 32, 32]          36,864
       BatchNorm2d-6           [-1, 64, 32, 32]             128
BasicBlockSkipConvKSize-7           [-1, 64, 32, 32]               0
            Conv2d-8           [-1, 64, 32, 32]          36,864
       BatchNorm2d-9           [-1, 64, 32, 32]             128
           Conv2d-10           [-1, 64, 32, 32]          36,864
      BatchNorm2d-11           [-1, 64, 32, 32]             128
BasicBlockSkipConvKSize-12           [-1, 64, 32, 32]               0
           Conv2d-13           [-1, 64, 16, 16]          36,864
      BatchNorm2d-14           [-1, 64, 16, 16]             128
           Conv2d-15           [-1, 64, 16, 16]          36,864
      BatchNorm2d-16           [-1, 64, 16, 16]             128
           Conv2d-17           [-1, 64, 16, 16]           4,096
      BatchNorm2d-18           [-1, 64, 16, 16]             128
BasicBlockSkipConvKSize-19           [-1, 64, 16, 16]               0
           Conv2d-20           [-1, 64, 16, 16]          36,864
      BatchNorm2d-21           [-1, 64, 16, 16]             128
           Conv2d-22           [-1, 64, 16, 16]          36,864
      BatchNorm2d-23           [-1, 64, 16, 16]             128
BasicBlockSkipConvKSize-24           [-1, 64, 16, 16]               0
           Conv2d-25             [-1, 64, 8, 8]          36,864
      BatchNorm2d-26             [-1, 64, 8, 8]             128
           Conv2d-27             [-1, 64, 8, 8]          36,864
      BatchNorm2d-28             [-1, 64, 8, 8]             128
           Conv2d-29             [-1, 64, 8, 8]           4,096
      BatchNorm2d-30             [-1, 64, 8, 8]             128
BasicBlockSkipConvKSize-31             [-1, 64, 8, 8]               0
           Conv2d-32             [-1, 64, 8, 8]          36,864
      BatchNorm2d-33             [-1, 64, 8, 8]             128
           Conv2d-34             [-1, 64, 8, 8]          36,864
      BatchNorm2d-35             [-1, 64, 8, 8]             128
BasicBlockSkipConvKSize-36             [-1, 64, 8, 8]               0
           Conv2d-37             [-1, 64, 4, 4]          36,864
      BatchNorm2d-38             [-1, 64, 4, 4]             128
           Conv2d-39             [-1, 64, 4, 4]          36,864
      BatchNorm2d-40             [-1, 64, 4, 4]             128
           Conv2d-41             [-1, 64, 4, 4]           4,096
      BatchNorm2d-42             [-1, 64, 4, 4]             128
BasicBlockSkipConvKSize-43             [-1, 64, 4, 4]               0
           Conv2d-44             [-1, 64, 4, 4]          36,864
      BatchNorm2d-45             [-1, 64, 4, 4]             128
           Conv2d-46             [-1, 64, 4, 4]          36,864
      BatchNorm2d-47             [-1, 64, 4, 4]             128
BasicBlockSkipConvKSize-48             [-1, 64, 4, 4]               0
           Linear-49                   [-1, 10]             650
================================================================
Total params: 607,050
Trainable params: 607,050
Non-trainable params: 0
----------------------------------------------------------------
Input size (MB): 0.01
Forward/backward pass size (MB): 7.97
Params size (MB): 2.32
Estimated Total Size (MB): 10.30
----------------------------------------------------------------

Epoch: 0
Epoch: 000 | Loss: 1.985 | Acc: 26.160% (13080/50000) | Training Time: 24s607ms
…
