Test case num:  29
==> device:  cuda
==> Preparing data..
Files already downloaded and verified
Files already downloaded and verified
==> Evaluating model..
----------------------------------------------------------------
        Layer (type)               Output Shape         Param #
================================================================
            Conv2d-1           [-1, 32, 32, 32]             864
       BatchNorm2d-2           [-1, 32, 32, 32]              64
            Conv2d-3           [-1, 32, 32, 32]           9,216
       BatchNorm2d-4           [-1, 32, 32, 32]              64
            Conv2d-5           [-1, 32, 32, 32]           9,216
       BatchNorm2d-6           [-1, 32, 32, 32]              64
   BasicBlockKSize-7           [-1, 32, 32, 32]               0
            Conv2d-8           [-1, 32, 32, 32]           9,216
       BatchNorm2d-9           [-1, 32, 32, 32]              64
           Conv2d-10           [-1, 32, 32, 32]           9,216
      BatchNorm2d-11           [-1, 32, 32, 32]              64
  BasicBlockKSize-12           [-1, 32, 32, 32]               0
           Conv2d-13           [-1, 64, 16, 16]          18,432
      BatchNorm2d-14           [-1, 64, 16, 16]             128
           Conv2d-15           [-1, 64, 16, 16]          36,864
      BatchNorm2d-16           [-1, 64, 16, 16]             128
           Conv2d-17           [-1, 64, 16, 16]           2,048
      BatchNorm2d-18           [-1, 64, 16, 16]             128
  BasicBlockKSize-19           [-1, 64, 16, 16]               0
           Conv2d-20           [-1, 64, 16, 16]          36,864
      BatchNorm2d-21           [-1, 64, 16, 16]             128
           Conv2d-22           [-1, 64, 16, 16]          36,864
      BatchNorm2d-23           [-1, 64, 16, 16]             128
  BasicBlockKSize-24           [-1, 64, 16, 16]               0
           Conv2d-25            [-1, 128, 8, 8]          73,728
      BatchNorm2d-26            [-1, 128, 8, 8]             256
           Conv2d-27            [-1, 128, 8, 8]         147,456
      BatchNorm2d-28            [-1, 128, 8, 8]             256
           Conv2d-29            [-1, 128, 8, 8]           8,192
      BatchNorm2d-30            [-1, 128, 8, 8]             256
  BasicBlockKSize-31            [-1, 128, 8, 8]               0
           Conv2d-32            [-1, 128, 8, 8]         147,456
      BatchNorm2d-33            [-1, 128, 8, 8]             256
           Conv2d-34            [-1, 128, 8, 8]         147,456
      BatchNorm2d-35            [-1, 128, 8, 8]             256
  BasicBlockKSize-36            [-1, 128, 8, 8]               0
           Conv2d-37            [-1, 256, 4, 4]         294,912
      BatchNorm2d-38            [-1, 256, 4, 4]             512
           Conv2d-39            [-1, 256, 4, 4]         589,824
      BatchNorm2d-40            [-1, 256, 4, 4]             512
           Conv2d-41            [-1, 256, 4, 4]          32,768
      BatchNorm2d-42            [-1, 256, 4, 4]             512
  BasicBlockKSize-43            [-1, 256, 4, 4]               0
           Conv2d-44            [-1, 256, 4, 4]         589,824
      BatchNorm2d-45            [-1, 256, 4, 4]             512
           Conv2d-46            [-1, 256, 4, 4]         589,824
      BatchNorm2d-47            [-1, 256, 4, 4]             512
  BasicBlockKSize-48            [-1, 256, 4, 4]               0
           Conv2d-49            [-1, 256, 4, 4]         589,824
      BatchNorm2d-50            [-1, 256, 4, 4]             512
           Conv2d-51            [-1, 256, 4, 4]         589,824
      BatchNorm2d-52            [-1, 256, 4, 4]             512
  BasicBlockKSize-53            [-1, 256, 4, 4]               0
           Linear-54                   [-1, 10]           2,570
================================================================
Total params: 3,978,282
Trainable params: 3,978,282
Non-trainable params: 0
----------------------------------------------------------------
Input size (MB): 0.01
Forward/backward pass size (MB): 5.78
Params size (MB): 15.18
Estimated Total Size (MB): 20.97
----------------------------------------------------------------

Epoch: 0
Epoch: 000 | Loss: 2.158 | Acc: 20.250% (10125/50000) | Training Time: 24s786ms
…
